…
obs_format to build EncoderMoEActorCritic: {'policy': {'base_ang_vel': (24,), 'projected_gravity': (24,), 'velocity_commands': (24,), 'joint_pos': (232,), 'joint_vel': (232,), 'actions': (232,), 'foot_contact_state': (64,), 'depth_image': (8, 18, 32)}, 'critic': {'base_lin_vel': (24,), 'base_ang_vel': (24,), 'projected_gravity': (24,), 'velocity_commands': (24,), 'joint_pos': (232,), 'joint_vel': (232,), 'actions': (232,), 'foot_contact_state': (64,), 'depth_image': (8, 18, 32)}, 'amp_policy': {'projected_gravity': (30,), 'joint_pos_rel': (290,), 'joint_vel': (290,), 'base_lin_vel': (30,), 'base_ang_vel': (30,)}, 'amp_reference': {'projected_gravity': (30,), 'joint_pos_rel': (290,), 'joint_vel': (290,), 'base_lin_vel': (30,), 'base_ang_vel': (30,)}}
Actor MLP: MoeLayer(
  (act_fn): ELU(alpha=1.0)
  (gate): Sequential(
    (0): Linear(in_features=960, out_features=4, bias=True)
  )
  (experts): ModuleList(
    (0-3): 4 x Sequential(
      (0): Linear(in_features=960, out_features=256, bias=True)
      (1): ELU(alpha=1.0)
      (2): Linear(in_features=256, out_features=128, bias=True)
      (3): ELU(alpha=1.0)
      (4): Linear(in_features=128, out_features=64, bias=True)
      (5): ELU(alpha=1.0)
      (6): Linear(in_features=64, out_features=29, bias=True)
    )
  )
)
Critic MLP: MoeLayer(
  (act_fn): ELU(alpha=1.0)
  (gate): Sequential(
    (0): Linear(in_features=984, out_features=4, bias=True)
  )
  (experts): ModuleList(
    (0-3): 4 x Sequential(
      (0): Linear(in_features=984, out_features=256, bias=True)
      (1): ELU(alpha=1.0)
      (2): Linear(in_features=256, out_features=128, bias=True)
      (3): ELU(alpha=1.0)
      (4): Linear(in_features=128, out_features=64, bias=True)
      (5): ELU(alpha=1.0)
      (6): Linear(in_features=64, out_features=1, bias=True)
    )
  )
)
Actor Encoder: ParallelLayer(1 blocks): ModuleDict(
  (depth_encoder): Conv2dHeadModel(
    (conv): Conv2dModel(
      (conv): Sequential(
        (0): Conv2d(8, 4, kernel_size=(3, 3), stride=(1, 1), padding=(1, 1))
        (1): ReLU()
      )
    )
    (head): MlpModel(
      (model): Sequential(
        (0): Linear(in_features=2304, out_features=256, bias=True)
        (1): ReLU()
        (2): Linear(in_features=256, out_features=256, bias=True)
        (3): ReLU()
        (4): Linear(in_features=256, out_features=128, bias=True)
        (5): ReLU()
      )
    )
  )
)
Critic Encoder: ParallelLayer(1 blocks): ModuleDict(
  (depth_encoder): Conv2dHeadModel(
    (conv): Conv2dModel(
      (conv): Sequential(
        (0): Conv2d(8, 4, kernel_size=(3, 3), stride=(1, 1), padding=(1, 1))
        (1): ReLU()
      )
    )
    (head): MlpModel(
      (model): Sequential(
        (0): Linear(in_features=2304, out_features=256, bias=True)
        (1): ReLU()
        (2): Linear(in_features=256, out_features=256, bias=True)
        (3): ReLU()
        (4): Linear(in_features=256, out_features=128, bias=True)
        (5): ReLU()
      )
    )
  )
)
Discriminator Network Structure: Discriminator(
  (model): MlpModel(
    (model): Sequential(
      (0): Linear(in_features=670, out_features=1024, bias=True)
      (1): ReLU()
      (2): Linear(in_features=1024, out_features=512, bias=True)
      (3): ReLU()
      (4): Linear(in_features=512, out_features=1, bias=True)
    )
  )
)
[INFO] Multi-Reward Manager:  <MultiRewardManager> contains 1 active groups.
and 33 active reward terms.
+---------------------------------------------------------+
|                Active Reward Group Terms                |
+-------+---------+---------------------------+-----------+
| Index | Group   |            Name           |    Weight |
…
obs_format to build EncoderMoEActorCritic: {'policy': {'base_ang_vel': (24,), 'projected_gravity': (24,), 'velocity_commands': (24,), 'joint_pos': (232,), 'joint_vel': (232,), 'actions': (232,), 'foot_contact_state': (64,), 'depth_image': (8, 18, 32)}, 'critic': {'base_lin_vel': (24,), 'base_ang_vel': (24,), 'projected_gravity': (24,), 'velocity_commands': (24,), 'joint_pos': (232,), 'joint_vel': (232,), 'actions': (232,), 'foot_contact_state': (64,), 'depth_image': (8, 18, 32)}, 'amp_policy': {'projected_gravity': (30,), 'joint_pos_rel': (290,), 'joint_vel': (290,), 'base_lin_vel': (30,), 'base_ang_vel': (30,)}, 'amp_reference': {'projected_gravity': (30,), 'joint_pos_rel': (290,), 'joint_vel': (290,), 'base_lin_vel': (30,), 'base_ang_vel': (30,)}}
Actor MLP: MoeLayer(
  (act_fn): ELU(alpha=1.0)
  (gate): Sequential(
    (0): Linear(in_features=960, out_features=4, bias=True)
  )
  (experts): ModuleList(
    (0-3): 4 x Sequential(
      (0): Linear(in_features=960, out_features=256, bias=True)
      (1): ELU(alpha=1.0)
      (2): Linear(in_features=256, out_features=128, bias=True)
      (3): ELU(alpha=1.0)
      (4): Linear(in_features=128, out_features=64, bias=True)
      (5): ELU(alpha=1.0)
      (6): Linear(in_features=64, out_features=29, bias=True)
    )
  )
)
Critic MLP: MoeLayer(
  (act_fn): ELU(alpha=1.0)
  (gate): Sequential(
    (0): Linear(in_features=984, out_features=4, bias=True)
  )
  (experts): ModuleList(
    (0-3): 4 x Sequential(
      (0): Linear(in_features=984, out_features=256, bias=True)
      (1): ELU(alpha=1.0)
      (2): Linear(in_features=256, out_features=128, bias=True)
      (3): ELU(alpha=1.0)
      (4): Linear(in_features=128, out_features=64, bias=True)
      (5): ELU(alpha=1.0)
      (6): Linear(in_features=64, out_features=1, bias=True)
    )
  )
)
Actor Encoder: ParallelLayer(1 blocks): ModuleDict(
  (depth_encoder): Conv2dHeadModel(
    (conv): Conv2dModel(
      (conv): Sequential(
        (0): Conv2d(8, 4, kernel_size=(3, 3), stride=(1, 1), padding=(1, 1))
        (1): ReLU()
      )
    )
    (head): MlpModel(
      (model): Sequential(
        (0): Linear(in_features=2304, out_features=256, bias=True)
        (1): ReLU()
        (2): Linear(in_features=256, out_features=256, bias=True)
        (3): ReLU()
        (4): Linear(in_features=256, out_features=128, bias=True)
        (5): ReLU()
      )
    )
  )
)
Critic Encoder: ParallelLayer(1 blocks): ModuleDict(
  (depth_encoder): Conv2dHeadModel(
    (conv): Conv2dModel(
      (conv): Sequential(
        (0): Conv2d(8, 4, kernel_size=(3, 3), stride=(1, 1), padding=(1, 1))
        (1): ReLU()
      )
    )
    (head): MlpModel(
      (model): Sequential(
        (0): Linear(in_features=2304, out_features=256, bias=True)
        (1): ReLU()
        (2): Linear(in_features=256, out_features=256, bias=True)
        (3): ReLU()
        (4): Linear(in_features=256, out_features=128, bias=True)
        (5): ReLU()
      )
    )
  )
)
Actor MLP: MoeLayer(
  (act_fn): ELU(alpha=1.0)
  (gate): Sequential(
    (0): Linear(in_features=960, out_features=4, bias=True)
  )
  (experts): ModuleList(
    (0-3): 4 x Sequential(
      (0): Linear(in_features=960, out_features=256, bias=True)
      (1): ELU(alpha=1.0)
      (2): Linear(in_features=256, out_features=128, bias=True)
      (3): ELU(alpha=1.0)
      (4): Linear(in_features=128, out_features=64, bias=True)
      (5): ELU(alpha=1.0)
      (6): Linear(in_features=64, out_features=29, bias=True)
    )
  )
)
Critic MLP: MoeLayer(
  (act_fn): ELU(alpha=1.0)
  (gate): Sequential(
    (0): Linear(in_features=984, out_features=4, bias=True)
  )
  (experts): ModuleList(
    (0-3): 4 x Sequential(
      (0): Linear(in_features=984, out_features=256, bias=True)
      (1): ELU(alpha=1.0)
      (2): Linear(in_features=256, out_features=128, bias=True)
      (3): ELU(alpha=1.0)
      (4): Linear(in_features=128, out_features=64, bias=True)
      (5): ELU(alpha=1.0)
      (6): Linear(in_features=64, out_features=1, bias=True)
    )
  )
)
Actor Encoder: ParallelLayer(1 blocks): ModuleDict(
  (depth_encoder): Conv2dHeadModel(
    (conv): Conv2dModel(
      (conv): Sequential(
        (0): Conv2d(8, 4, kernel_size=(3, 3), stride=(1, 1), padding=(1, 1))
        (1): ReLU()
      )
    )
    (head): MlpModel(
      (model): Sequential(
        (0): Linear(in_features=2304, out_features=256, bias=True)
        (1): ReLU()
        (2): Linear(in_features=256, out_features=256, bias=True)
        (3): ReLU()
        (4): Linear(in_features=256, out_features=128, bias=True)
        (5): ReLU()
      )
    )
  )
)
Critic Encoder: ParallelLayer(1 blocks): ModuleDict(
  (depth_encoder): Conv2dHeadModel(
    (conv): Conv2dModel(
      (conv): Sequential(
        (0): Conv2d(8, 4, kernel_size=(3, 3), stride=(1, 1), padding=(1, 1))
        (1): ReLU()
      )
    )
    (head): MlpModel(
      (model): Sequential(
        (0): Linear(in_features=2304, out_features=256, bias=True)
        (1): ReLU()
        (2): Linear(in_features=256, out_features=256, bias=True)
        (3): ReLU()
        (4): Linear(in_features=256, out_features=128, bias=True)
        (5): ReLU()
      )
    )
  )
)
Discriminator Network Structure: Discriminator(
  (model): MlpModel(
    (model): Sequential(
      (0): Linear(in_features=670, out_features=1024, bias=True)
      (1): ReLU()
      (2): Linear(in_features=1024, out_features=512, bias=True)
      (3): ReLU()
      (4): Linear(in_features=512, out_features=1, bias=True)
    )
  )
)
Discriminator Network Structure: Discriminator(
  (model): MlpModel(
    (model): Sequential(
      (0): Linear(in_features=670, out_features=1024, bias=True)
      (1): ReLU()
      (2): Linear(in_features=1024, out_features=512, bias=True)
      (3): ReLU()
      (4): Linear(in_features=512, out_features=1, bias=True)
    )
  )
)
obs_format to build EncoderMoEActorCritic: {'policy': {'base_ang_vel': (24,), 'projected_gravity': (24,), 'velocity_commands': (24,), 'joint_pos': (232,), 'joint_vel': (232,), 'actions': (232,), 'foot_contact_state': (64,), 'depth_image': (8, 18, 32)}, 'critic': {'base_lin_vel': (24,), 'base_ang_vel': (24,), 'projected_gravity': (24,), 'velocity_commands': (24,), 'joint_pos': (232,), 'joint_vel': (232,), 'actions': (232,), 'foot_contact_state': (64,), 'depth_image': (8, 18, 32)}, 'amp_policy': {'projected_gravity': (30,), 'joint_pos_rel': (290,), 'joint_vel': (290,), 'base_lin_vel': (30,), 'base_ang_vel': (30,)}, 'amp_reference': {'projected_gravity': (30,), 'joint_pos_rel': (290,), 'joint_vel': (290,), 'base_lin_vel': (30,), 'base_ang_vel': (30,)}}
Actor MLP: MoeLayer(
  (act_fn): ELU(alpha=1.0)
  (gate): Sequential(
    (0): Linear(in_features=960, out_features=4, bias=True)
  )
  (experts): ModuleList(
    (0-3): 4 x Sequential(
      (0): Linear(in_features=960, out_features=256, bias=True)
      (1): ELU(alpha=1.0)
      (2): Linear(in_features=256, out_features=128, bias=True)
      (3): ELU(alpha=1.0)
      (4): Linear(in_features=128, out_features=64, bias=True)
      (5): ELU(alpha=1.0)
      (6): Linear(in_features=64, out_features=29, bias=True)
    )
  )
)
Critic MLP: MoeLayer(
  (act_fn): ELU(alpha=1.0)
  (gate): Sequential(
    (0): Linear(in_features=984, out_features=4, bias=True)
  )
  (experts): ModuleList(
    (0-3): 4 x Sequential(
      (0): Linear(in_features=984, out_features=256, bias=True)
      (1): ELU(alpha=1.0)
      (2): Linear(in_features=256, out_features=128, bias=True)
      (3): ELU(alpha=1.0)
      (4): Linear(in_features=128, out_features=64, bias=True)
      (5): ELU(alpha=1.0)
      (6): Linear(in_features=64, out_features=1, bias=True)
    )
  )
)
Actor Encoder: ParallelLayer(1 blocks): ModuleDict(
  (depth_encoder): Conv2dHeadModel(
    (conv): Conv2dModel(
      (conv): Sequential(
        (0): Conv2d(8, 4, kernel_size=(3, 3), stride=(1, 1), padding=(1, 1))
        (1): ReLU()
      )
    )
    (head): MlpModel(
      (model): Sequential(
        (0): Linear(in_features=2304, out_features=256, bias=True)
        (1): ReLU()
        (2): Linear(in_features=256, out_features=256, bias=True)
        (3): ReLU()
        (4): Linear(in_features=256, out_features=128, bias=True)
        (5): ReLU()
      )
    )
  )
)
Critic Encoder: ParallelLayer(1 blocks): ModuleDict(
  (depth_encoder): Conv2dHeadModel(
    (conv): Conv2dModel(
      (conv): Sequential(
        (0): Conv2d(8, 4, kernel_size=(3, 3), stride=(1, 1), padding=(1, 1))
        (1): ReLU()
      )
    )
    (head): MlpModel(
      (model): Sequential(
        (0): Linear(in_features=2304, out_features=256, bias=True)
        (1): ReLU()
        (2): Linear(in_features=256, out_features=256, bias=True)
        (3): ReLU()
        (4): Linear(in_features=256, out_features=128, bias=True)
        (5): ReLU()
      )
    )
  )
)
Discriminator Network Structure: Discriminator(
  (model): MlpModel(
    (model): Sequential(
      (0): Linear(in_features=670, out_features=1024, bias=True)
      (1): ReLU()
      (2): Linear(in_features=1024, out_features=512, bias=True)
      (3): ReLU()
      (4): Linear(in_features=512, out_features=1, bias=True)
    )
  )
)
[INFO] Multi-Reward Manager:  <MultiRewardManager> contains 1 active groups.
and 33 active reward terms.
+---------------------------------------------------------+
|                Active Reward Group Terms                |
+-------+---------+---------------------------+-----------+
| Index | Group   |            Name           |    Weight |
…
